CSIC30166/Lab1/model/mobilenet.pth (torch, 865638 bytes, 262 tensors)

weight f4 [32, 3, 3, 3]
0	0xbe74d53e	-0.2390947
1	0xbe9b0fe0	-0.3028555
2	0xbe8f797c	-0.28022373
3	0xbf06d2de	-0.5266551
4	0xbf193f15	-0.5986188
5	0xbf139258	-0.5764518
6	0xbf1114f0	-0.56672573
7	0xbf2f23fa	-0.6841427
8	0xbf1ddf01	-0.616684
9	0xbbfd0d85	-0.007722559
10	0x3cdefc42	0.027219895
11	0x3d730d48	0.059338838
12	0xbd866012	-0.06561293
13	0xbcdb8ee6	-0.026801538
14	0xbc3d78a2	-0.011564406
15	0x3d2936fd	0.041312207
16	0x3d7db021	0.061935548
17	0x3d8a0ec6	0.06741099
18	0x3eb7ee68	0.35924077
19	0x3ed58669	0.4170411
20	0x3ec3661d	0.38163844
21	0x3ef3663e	0.47538942
22	0x3f0dee90	0.5544214
23	0x3efbb92d	0.49164715
24	0x3f280c77	0.6564402
25	0x3f34e4cb	0.7066161
26	0x3f22db3f	0.63615793
27	0x3e0da56d	0.13832636
28	0x3d833d46	0.06408171
29	0xbc728d0b	-0.014804135
30	0x3e131571	0.14363648
31	0x3d76304d	0.060104657
32	0xbd994755	-0.07484309
33	0x3de030c7	0.109468035
34	0xbce4f47f	-0.027948616
35	0xbefcb4ae	-0.49356598
36	0x3e1ef27f	0.15522192
37	0x3d973232	0.07382621
38	0xbc93b2f6	-0.018029671
39	0x3e1cf650	0.15328336
40	0x3db59402	0.08866121
41	0xbd3804fc	-0.04492663
42	0x3d7450d6	0.059647404
43	0xbce41794	-0.027843274
44	0xbebf7613	-0.3739477
45	0x3e8b59ba	0.27216893
46	0x3e50710d	0.20355625
47	0x3e1608d6	0.14651808
48	0x3e5f8a46	0.21830091
49	0x3e2af190	0.16693711
50	0x3d9cfdd1	0.07665599
51	0x3e17af07	0.14812861
52	0x3d1df8e1	0.038567428
53	0xbe505df5	-0.20348342
54	0xbd2d6040	-0.04232812
55	0xbe251c85	-0.1612416
56	0xbdff2b14	-0.124593884
57	0x3e7c96f0	0.24666953
58	0xbe853f94	-0.2602507
59	0xbbd11f11	-0.006381877
60	0x3e771a96	0.24131235
61	0xbe8a1f02	-0.26976782
62	0xbbc47490	-0.0059953406
63	0xbd4af968	-0.04955426
64	0xbe7a918c	-0.24469584
65	0xbe179bc2	-0.1480551
66	0x3ebfe281	0.37477496
67	0xbedd6805	-0.43243423
68	0xbd8d0b9e	-0.068869814
69	0x3eb412c8	0.3517058
70	0xbecd454e	-0.40091938
71	0xbcfc7304	-0.030816562
72	0xbdf60cfb	-0.120141946
73	0xbe1d597a	-0.15366164
74	0xbe286456	-0.16444525
75	0x3e19491e	0.14969298
76	0xbe0e7222	-0.13910726
77	0x3c33c7cc	0.010972928
78	0x3e1f8bdb	0.15580694
79	0xbdfd7024	-0.12374905
80	0x3ceca6a1	0.028888049
81	0xbe6c4cef	-0.23076223
82	0x3e2ba903	0.16763692
83	0x3f1ccd6c	0.6125095
84	0xbe9a875b	-0.30181393
85	0x3e156557	0.1458944
86	0x3f13275a	0.5748192
87	0xbeabbb49	-0.33541325
88	0xbe0eaa67	-0.13932191
89	0x3e029414	0.127518
90	0xbee74cf0	-0.45175886
91	0xbcefcacc	-0.029271506
92	0x3ef68a1a	0.48152238
93	0xbf0445e8	-0.5166917
94	0xbd6bcc55	-0.057567913
95	0x3ed5aa7b	0.4173163
96	0xbf03971b	-0.51402444
97	0xbeb59431	-0.35464624
98	0xbdf6bf6f	-0.12048232
99	0xbe2a387e	-0.16623113
100	0x3e020b4b	0.1269962
101	0x3ed6815d	0.4189557
102	0xbdc9002d	-0.09814487
103	0x3e2a5f88	0.16638005
104	0x3edbddfa	0.42942792
105	0xbe263216	-0.16230044
106	0x3ccb27c6	0.024799239
107	0x3e283394	0.16425925
108	0x3d86ca2d	0.06581531
109	0xbe6b2fce	-0.22967455
110	0xbe4335fa	-0.19063559
111	0x3eb53476	0.35391587
112	0xbf090242	-0.5351907
113	0xbe7410fb	-0.23834603
114	0x3e21c9a8	0.15799582
115	0xbf31670b	-0.69297856
116	0xbeb64856	-0.35602063
117	0x3ec9796e	0.39350456
118	0x3dd09cae	0.10186134
119	0x3e12e9a0	0.14346933
120	0x3f908af0	1.12924
121	0xbe966e9a	-0.29381257
122	0x3e8a6369	0.2702897
123	0x3f58a23a	0.8462254
124	0xbec320fc	-0.38111103
125	0x3e67d7e9	0.22640957
126	0xbd3c1239	-0.045915816
127	0xbe63f0fe	-0.222599
128	0xbe7f4c05	-0.24931343
129	0x3e5de74b	0.21670263
130	0xbe9b3ba5	-0.30318943
131	0xbdf5feba	-0.12011476
132	0x3d49c1ae	0.049256973
133	0xbefe0366	-0.49611968
134	0xbe99dd71	-0.3005176
135	0xbea1b7cd	-0.3158554
136	0xbea5e2cc	-0.32399595
137	0x3e7e2db8	0.24822128
138	0xbec026fb	-0.3752974
139	0xbe64ee78	-0.22356594
140	0x3eb3f76c	0.35149705
141	0xbe126b88	-0.14298832
142	0x3e3a1e2d	0.18175574
143	0x3f562977	0.8365702
144	0xbed3f7e3	-0.4140006
145	0xbec526e8	-0.38506246
146	0x3e93b9d1	0.28852704
147	0xbf34564d	-0.70444185
148	0xbf1938a0	-0.5985203
149	0x3ecb0af6	0.396568
150	0xbe4a9398	-0.19782865
151	0x3d91d7fe	0.07121275
152	0x3f8e1e73	1.1103042
153	0xbe80545c	-0.2506436
154	0xbe91db20	-0.28487492
155	0x3e7ac685	0.24489792
156	0xbec554bf	-0.3854122
157	0xbe819d42	-0.2531529
158	0x3efcc4b5	0.49368826
159	0xbe3319b1	-0.17490269
160	0x3df6e5ac	0.12055525
161	0x3f3eb176	0.74489534
162	0xbe24696e	-0.16055843
163	0xbe81d217	-0.25355598
164	0xbda01118	-0.078157604
165	0xbdcb4c17	-0.09926622
166	0xbddc4881	-0.107560165
167	0x3c157673	0.009122479
168	0xbe42eaa3	-0.1903482
169	0xbe7c604c	-0.2464611
170	0xbe0da527	-0.13832532
171	0x3cc4225d	0.023942167
172	0x3ca36cf6	0.019949418
173	0x3d9b7cec	0.07592186
174	0x3da81a4e	0.08208142
175	0x3e1b9a41	0.15195562
176	0x3e44630e	0.19178411
177	0xbd87f0f4	-0.06637755
178	0xbda0e28e	-0.07855712
179	0xbcd5761b	-0.026057294
180	0x3db6eb1d	0.08931563
181	0x3ecbd491	0.39810613
182	0x3eba620d	0.36402932
183	0x3e3e28d1	0.18570258
184	0x3f168b39	0.58806187
185	0x3f06b51d	0.52620107
186	0x3d068189	0.032838378
187	0x3e92e7a0	0.2869234
188	0x3e899471	0.26871064
189	0x3f514dc9	0.81759316
190	0x3f0aecc8	0.5426755
191	0x3e8d77dc	0.27630508
192	0x3e232508	0.15932095
193	0xbe7d967c	-0.24764436
194	0xbebde635	-0.37089697
195	0xbd4a1398	-0.049335092
196	0xbee9307d	-0.45544806
197	0xbeec2ddc	-0.46128738
198	0x3f726805	0.9468997
199	0x3f22c50f	0.6358194
200	0x3e529cac	0.20567578
201	0x3e1add4b	0.15123479
202	0xbea002c0	-0.31252098
203	0xbf0c8549	-0.54890877
204	0xbe95a4c5	-0.29227272
205	0xbf18c026	-0.59668195
206	0xbf34e3bb	-0.7065999
207	0x3f237f4a	0.638661
208	0x3eee29de	0.46516317
209	0x3e6a0fd1	0.22857596
210	0x3e041cd6	0.12901625
211	0xbdec1e9c	-0.11529276
212	0xbe96cbc4	-0.29452336
213	0xbcb9c049	-0.022674697
214	0xbeaa38d1	-0.33246472
215	0xbecb5bf7	-0.397186
216	0xbe44f7c1	-0.19235136
217	0xbd083ba9	-0.03326002
218	0xbe19472b	-0.14968555
219	0xbda3b32f	-0.07993161
220	0x3df7a9dd	0.12092946
221	0xbd04e50e	-0.032445006
222	0xbd85107e	-0.06497286
223	0x3df5cbe5	0.120017804
224	0xbcb27d45	-0.021788249
225	0x3ea9eaef	0.33187053
226	0x3f0752c3	0.5286066
227	0x3f0c56ff	0.54820246
228	0x3ee90ab4	0.45515978
229	0x3f53712b	0.82594556
230	0x3f4e96b1	0.80698687
231	0x3eb37ea1	0.35057548
232	0x3f0fd2bb	0.56180924
233	0x3f09624f	0.5366563
234	0xbece490b	-0.40290102
235	0xbf0e8a0f	-0.5567941
236	0xbf3a1e21	-0.72702223
237	0xbf0377dd	-0.5135477
238	0xbf258f56	-0.6467184
239	0xbf3da66c	-0.74082065
240	0xbeb853bf	-0.36001393
241	0xbee4a079	-0.4465368
242	0xbf19e2ab	-0.6011149
243	0x3e2ade8d	0.16686459
244	0x3e5c389d	0.21505971
245	0x3ea86117	0.32886574
246	0x3c6aedfb	0.0143389655
247	0xbe1587c6	-0.14602575
248	0xbd09aad2	-0.033610173
249	0x3dd30718	0.103040874
250	0xbe5b3634	-0.21407396
251	0xbd8099d1	-0.06279338
252	0xbe03e784	-0.12881285
253	0xbe0cdc9a	-0.13756028
254	0xbcf5127f	-0.029916046
255	0xbe9fb7a9	-0.3119481

weight f4 [32]
0	0x3f24139d	0.6409243
1	0x3fb6ee83	1.4291538
2	0x3ed39de8	0.4133141
3	0x3f1eedef	0.6208181
4	0x3f474ed4	0.7785466
5	0x3f037a5a	0.5135857
6	0x3efef00b	0.49792513
7	0x3f027d89	0.509728
8	0x3ef7c497	0.48392174
9	0x3f2064df	0.6265392
10	0x3eea7fa0	0.45800495
11	0x3ec36f91	0.38171056
12	0x3f981e58	1.188426
13	0x3dcb42d4	0.09924856
14	0x3ed375b1	0.4130073
15	0x3f642912	0.8912517
16	0x3f92151a	1.141269
17	0x3e201d36	0.15636143
18	0x3eb8c3d4	0.36086905
19	0x3f23de94	0.640115
20	0x3e80c2bb	0.25148568
21	0x3f432846	0.7623333
22	0x3e47f319	0.19526328
23	0x3f28ac20	0.6588764
24	0x3f333f24	0.7001822
25	0x3efe86ad	0.49712124
26	0x3f27cb07	0.6554417
27	0x3f0782ca	0.52933943
28	0x3e01a75d	0.126615
29	0x3e0b9986	0.13632783
30	0x3f6a136b	0.9143588
31	0x3e8a79ef	0.27046153

bias f4 [32]
0	0x3f0856ab	0.53257245
1	0xbfe59d76	-1.7938678
2	0xbdfb5791	-0.12272561
3	0x3f45ea8c	0.77311015
4	0x3f98cb33	1.1937011
5	0x3f933dca	1.1503232
6	0x3f84e7ca	1.0383236
7	0x3f8bbe51	1.0917455
8	0x3f98af9c	1.1928592
9	0x3fb41d34	1.4071412
10	0x3f631f0c	0.8871925
11	0x400e283c	2.2212057
12	0xbf874e17	-1.0570706
13	0xbed4deae	-0.4157614
14	0x3f6bb1fc	0.9206846
15	0x3f2a5bce	0.6654633
16	0x3f7ae06d	0.97998697
17	0x3eda375e	0.42620367
18	0x3f6a49a4	0.91518617
19	0x3f78eaad	0.97233087
20	0x3f8c4efc	1.0961604
21	0x3e8ec055	0.27881113
22	0x3f142538	0.5786929
23	0x3e873988	0.2641108
24	0x3ff3babf	1.9041365
25	0x3fa69418	1.3013945
26	0x3f381d19	0.719194
27	0x3faebb46	1.3650901
28	0x3f1c4afb	0.6105191
29	0xbf21e1e7	-0.63235325
30	0xc0064579	-2.0979903
31	0x3f2a766e	0.6658696

running_mean f4 [32]
0	0x3f395d24	0.72407746
1	0x3e386f66	0.18011245
2	0xbe084f71	-0.13311554
3	0x3d260abf	0.040537592
4	0xbc1b1c04	-0.009467129
5	0x3ad11c8b	0.0015953941
6	0x3ef46937	0.47736523
7	0xbc57158d	-0.013127697
8	0xbe9c55c4	-0.30534184
9	0xbe6fe130	-0.23425746
10	0xbd02e6cc	-0.031958386
11	0x3e55e674	0.20888692
12	0xbeddb714	-0.4330374
13	0x224f9e2f	2.8137473e-18
14	0x3dae2f81	0.085051544
15	0xbf395480	-0.7239456
16	0xbd0dd8ea	-0.034630693
17	0xbd1521ea	-0.036409296
18	0xbe6d9f99	-0.23205413
19	0x3ec7b08a	0.39001876
20	0x3db1cb65	0.086813726
21	0x3da12ae7	0.07869511
22	0xbce030b1	-0.027366968
23	0xbcbf0827	-0.023319317
24	0xb8f8fba3	-0.000118724325
25	0xbecc7d3e	-0.39939302
26	0xbd2e2e52	-0.042524643
27	0xbe88c50d	-0.26712838
28	0xbb8466d8	-0.0040405802
29	0x23c16d50	2.0971398e-17
30	0x3e2dd0a6	0.16974124
31	0x3cc733ed	0.024316752

running_var f4 [32]
0	0x412e9df4	10.913563
1	0x3fb65b91	1.4246694
2	0x40069ce5	2.103326
3	0x3f05d60d	0.5227974
4	0x3f9cb31d	1.2242161
5	0x3eaea261	0.3410826
6	0x40cad9e5	6.3390985
7	0x3f2f4f5e	0.6848048
8	0x40b21627	5.565204
9	0x40c5e687	6.1843905
10	0x3f1157b7	0.5677447
11	0x3f90218c	1.1260238
12	0x40b17271	5.54522
13	0x0a9ce3f2	1.5107997e-32
14	0x3f838e1e	1.0277746
15	0x412f807e	10.96887
16	0x3e2f0943	0.17093377
17	0x3e0f895f	0.14017247
18	0x41974c14	18.912148
19	0x40380dc0	2.8758392
20	0x3ed0f04b	0.4080833
21	0x4093ae7d	4.61505
22	0x3e6b1d8d	0.22960491
23	0x40376986	2.8658156
24	0x3e0e69c2	0.13907531
25	0x40dd0f52	6.90812
26	0x3f459dcb	0.771939
27	0x41201f5c	10.007656
28	0x3e319f07	0.1734582
29	0x0b346be2	3.47479e-32
30	0x3fbef78f	1.4919299
31	0x3d8c1c7e	0.06841372

weight f4 [32, 1, 3, 3]
0	0x3f1890aa	0.5959574
1	0x3f9c8a96	1.2229793
2	0x3ee84bb1	0.45370248
3	0x3d298a2b	0.041391533
4	0x3f0ba3ad	0.54546624
5	0xbdba8a43	-0.091084026
6	0xbf34a524	-0.70564485
7	0xbf067f59	-0.5253807
8	0xbf1a97e8	-0.6038804
9	0x3eb05bbf	0.34444997
10	0x3e3a1689	0.18172659
11	0xbe535d8a	-0.20641151
12	0x3ef8e161	0.4860945
13	0x3e68fec4	0.22753435
14	0xbe47f807	-0.19528209
15	0xbe5e83b6	-0.21729931
16	0xbe2d318f	-0.16913436
17	0xbe92cc45	-0.2867147
18	0x3b4da79e	0.0031380425
19	0xbe021036	-0.12701496
20	0xbe4fb12e	-0.20282432
21	0x3e60dfc0	0.21960354
22	0x3f1e7e5e	0.6191157
23	0x3c3a6be8	0.011378266
24	0x3c58d089	0.013233312
25	0xbd847654	-0.06467882
26	0xbde4db6e	-0.111746654
27	0xbd633eeb	-0.055479925
28	0xbef256a6	-0.47331733
29	0xbf180b96	-0.5939268
30	0x3e4a2156	0.19739279
31	0xbe9047df	-0.28179833
32	0xbe797eb4	-0.2436474
33	0x3e9d63d5	0.30740228
34	0x3f65a9e3	0.8971235
35	0x3ece88a1	0.40338615
36	0x3e997f2a	0.2997983
37	0x3f1c3ca8	0.61030054
38	0xbd2b8eda	-0.04188428
39	0x3e22532a	0.15852037
40	0x3f586b45	0.8453868
41	0xbecc2470	-0.3987155
42	0xbeae0bcc	-0.33993375
43	0xbeddacc9	-0.43295887
44	0xbf64f6d9	-0.8943916
45	0x3f162685	0.58652526
46	0x3e37b3e9	0.17939724
47	0xbe5e482a	-0.21707216
48	0x3fa92a1d	1.3215977
49	0xbf1a0699	-0.6016632
50	0xbef6605b	-0.48120388
51	0x3ebcaeae	0.3685202
52	0xbf510141	-0.8164254
53	0xbe958529	-0.29203156
54	0xbf39c9fe	-0.7257384
55	0x3d67a740	0.056555986
56	0x3f62e868	0.88635874
57	0xbfb8330a	-1.4390576
58	0x3c81737c	0.015802138
59	0x3fcbd288	1.5923624
60	0xbfc717f5	-1.5554186
61	0xbe2fdd6a	-0.17174307
62	0x3fb2c508	1.3966379
63	0x3e1e3156	0.15448508
64	0xbf439f99	-0.764154
65	0xbf2cdb96	-0.6752256
66	0xbf093f54	-0.53612256
67	0xbf33682b	-0.7008082
68	0x3e0c2c5b	0.13688795
69	0x3e875d33	0.26438293
70	0x3f9f5645	1.2448202
71	0x3f4337ef	0.7625722
72	0x3f801a71	1.0008069
73	0xbddff3c3	-0.10935166
74	0xbf9b39c4	-1.2127004
75	0x3fe47847	1.7849206
76	0x3db5dd39	0.088800855
77	0xbfd9427b	-1.6973413
78	0x3fd66c30	1.6751766
79	0x3dd5ff60	0.104490995
80	0xbfb7c4b3	-1.4356903
81	0xbfe078f7	-1.7536916
82	0x3c770786	0.015077477
83	0x3fecfae1	1.8514062
84	0xc010df39	-2.2636244
85	0x3cae93f0	0.021310776
86	0x401f9304	2.4933481
87	0xbfc3a019	-1.5283233
88	0xbe0c2eb8	-0.13689697
89	0x3fa605fe	1.2970579
90	0xbedd907d	-0.43274298
91	0x3ee48e6c	0.4463991
92	0x3f0dd87c	0.55408454
93	0xbfa10958	-1.2580976
94	0x3efbc3d1	0.49172834
95	0x3f02b615	0.51059085
96	0xbf3b1fbb	-0.7309529
97	0x3d8b093c	0.06788871
98	0x3e97b674	0.29631388
99	0x3f0b90f6	0.5451807
100	0x3e9b43c8	0.3032515
101	0x3d022e35	0.031782348
102	0x3ea74ac1	0.3267422
103	0x3dbb8638	0.091564596
104	0xbe4e130b	-0.20124452
105	0xbe6ef935	-0.23337252
106	0xbecebe9e	-0.40379804
107	0xbf0edf47	-0.55809444
108	0x3f240733	0.64073485
109	0x3ef1d274	0.47230875
110	0x3d201e05	0.03909113
111	0x3e96ec4f	0.29477164
112	0x3e46d26b	0.19416206
113	0xbe46611c	-0.19372982
114	0xbe8d21ea	-0.27564937
115	0xbe6de669	-0.23232426
116	0xbf04f253	-0.5193226
117	0x23461ae9	1.07393e-17
118	0x2226d06b	2.260753e-18
119	0xa30dc834	-7.68602e-18
120	0x23a26612	1.7607304e-17
121	0x232ec2c6	9.473804e-18
122	0xa364ca57	-1.2402752e-17
123	0x22d08a38	5.6524858e-18
124	0x224fabe5	2.8144731e-18
125	0xa3444e73	-1.06417936e-17
126	0xbf425cd3	-0.7592289
127	0xbf864577	-1.0489949
128	0xbe9d0046	-0.3066427
129	0xbe385e95	-0.1800483
130	0xbd8a1fe8	-0.06744367
131	0x3e1a28b5	0.15054591
132	0x3f548963	0.83022135
133	0x3f9c5c79	1.221572
134	0x3ee45284	0.44594204
135	0x3f4ceda0	0.80050087
136	0x3ff62da2	1.9232676
137	0x3f8af9bc	1.0857463
138	0xbd9d5f6c	-0.07684216
139	0x3f135983	0.5755846
140	0x3e22358b	0.15840738
141	0xbfaa2899	-1.329364
142	0xbf9a5e24	-1.205998
143	0xbf8745b2	-1.0568144
144	0x3cb11eee	0.021621194
145	0xbd302018	-0.042999357
146	0x3d644da4	0.055738106
147	0xbd82381a	-0.06358357
148	0xbf1688b4	-0.5880234
149	0x3cfe4915	0.031040708
150	0x3e57de3c	0.2108087
151	0xbc45938f	-0.0120591065
152	0x3e8fc34f	0.28078696
153	0x3e126d3d	0.14299484
154	0x3cc30bad	0.023809278
155	0xbe3d6102	-0.18494037
156	0x3eb93229	0.36171082
157	0x3f1ca7b6	0.61193407
158	0xbe6a94f0	-0.22908378
159	0xbdca2c80	-0.09871769
160	0xbe6c7082	-0.23089793
161	0xbeca34a7	-0.39493296
162	0xbac6000d	-0.0015106216
163	0xbe6aa640	-0.22914982
164	0x3d193943	0.037408125
165	0xbecf7f0f	-0.40526626
166	0xbf587273	-0.84549636
167	0x3c7d2a73	0.015452015
168	0x3e88187d	0.26581183
169	0xbdb68883	-0.08912756
170	0x3de992a8	0.114049256
171	0x3e22160b	0.15828721
172	0x3e597a83	0.21238141
173	0x3eacddcb	0.33762965
174	0xbbed19ac	-0.0072357263
175	0x3c784680	0.015153527
176	0x3e8e9ef8	0.2785566
177	0xbed8a4a5	-0.42313114
178	0xbf7f964e	-0.9983872
179	0xbe89f6a3	-0.2694598
180	0xbb26f59f	-0.0025475991
181	0xbd4d8f57	-0.050185528
182	0xbd984c3d	-0.07436416
183	0xbe8bff88	-0.27343392
184	0xbf41d9be	-0.75722873
185	0xbf18a269	-0.5962282
186	0x3f09d03d	0.5383337
187	0x3f8d5aea	1.104337
188	0x3e85ba89	0.26118878
189	0x3f6b1c0f	0.9183969
190	0x3fa98021	1.3242227
191	0x3f625aee	0.8842
192	0x3d9ec904	0.077531844
193	0x3ee4855a	0.4463299
194	0x3d6dd96f	0.05806869
195	0xbf958d3e	-1.1683729
196	0xbf5d5934	-0.8646424
197	0xbf69e16d	-0.913596
198	0x3e18c5f3	0.14919262
199	0x3e064f4d	0.13116188
200	0x3dfc9671	0.12333382
201	0x3d8e46fc	0.06947133
202	0x3f4233ed	0.7586048
203	0x3d5511a5	0.05201878
204	0xbea74318	-0.32668376
205	0xbed3f87e	-0.41400522
206	0xbeac877f	-0.33697125
207	0x3eff7059	0.49890402
208	0x3f2cce8d	0.6750267
209	0x3e6165a8	0.22011435
210	0x3dfc1b22	0.12309863
211	0x3ea23e46	0.31688136
212	0xbe15fff7	-0.14648424
213	0xbec8b96e	-0.39203972
214	0xbe736954	-0.23770648
215	0xbec23f55	-0.37938944
216	0x3c40584e	0.0117398035
217	0xbeb9a7eb	-0.36260924
218	0x3eafc9e6	0.34333724
219	0xbd5d7d47	-0.054074552
220	0xbf44e8a6	-0.76917493
221	0x3ed798a9	0.42108658
222	0x3ccb877c	0.024844877
223	0xbd553710	-0.052054465
224	0x3ee05267	0.43812868
225	0x3f95511d	1.1665379
226	0x3bc88ccf	0.0061203013
227	0xbf9fd843	-1.2487873
228	0x4006f55d	2.1087258
229	0x3cb81b8f	0.022474078
230	0xc0000217	-2.0001276
231	0x3fdd2ed6	1.7279918
232	0xbc0b9d60	-0.008521408
233	0xbfdfced0	-1.7484989
234	0x3ed8b122	0.42322642
235	0x3dc7826a	0.097416714
236	0xbe8d11f1	-0.2755275
237	0x3f863966	1.0486267
238	0xbd9ca190	-0.07648003
239	0xbf0748a8	-0.5284524
240	0x3d66900a	0.05628971
241	0xbef6e7c3	-0.48223695
242	0xbf1199d6	-0.5687536
243	0xbfa2fe6b	-1.2733892
244	0xc004958e	-2.071628
245	0xbfd0fec4	-1.6327748
246	0x3db0b56e	0.08628355
247	0x3e214c3c	0.15751737
248	0xbdd8565b	-0.10563346
249	0x3fb7e899	1.4367858
250	0x3ff3190b	1.8992018
251	0x3fce833c	1.61338
252	0x3dc082c1	0.09399939
253	0x3d792991	0.060830656
254	0xbe8dd541	-0.27701762
255	0x3e97a76b	0.29619917

weight f4 [32]
0	0x3f94005d	1.1562611
1	0x3ea4d56c	0.32194078
2	0x3f0d2c87	0.5514607
3	0x3f1ddf54	0.61668897
4	0x3f4f6028	0.810061
5	0x400d3d93	2.2068832
6	0x3fa54718	1.2912321
7	0x401cd1d6	2.4503074
8	0x3fc1bff9	1.513671
9	0x4020a2e9	2.5099432
10	0x4004b535	2.07356
11	0x3f8e73ff	1.1129149
12	0x3eefce64	0.4683715
13	0x3e595261	0.21222831
14	0x3f462258	0.77396154
15	0x3f889d61	1.0673028
16	0x3e70fe15	0.23534425
17	0x3ed8735b	0.4227551
18	0x3f8d23a1	1.1026498
19	0x3f439749	0.7640272
20	0x402c9e03	2.6971443
21	0x3f5fe7d9	0.87463146
22	0x3ef29b8d	0.473843
23	0x3f2dac11	0.6784068
24	0x3f2935fd	0.66098005
25	0x3fe43059	1.7827255
26	0x3f02ef44	0.5114634
27	0x4029e55d	2.6546242
28	0x3ec16108	0.3776934
29	0x3e8f75a4	0.2801944
30	0x3ed030ed	0.40662327
31	0x3f295436	0.6614412

bias f4 [32]
0	0x3f4d2b68	0.8014436
1	0xbd88797e	-0.06663798
2	0xbe417239	-0.18891229
3	0x3f800dd9	1.0004226
4	0x3f8aa016	1.0830104
5	0x3fbe82e3	1.4883693
6	0x3f9f4f67	1.2446107
7	0x3ff0903f	1.879402
8	0x3fe00c4f	1.7503756
9	0x3faa0ffc	1.3286128
10	0x3fbfe2cd	1.4991089
11	0x3e956601	0.29179385
12	0x3eb674af	0.35635898
13	0xbe9c71c3	-0.30555543
14	0x3faade01	1.3349
15	0x3f82d66d	1.0221688
16	0x3f7fe9b0	0.99965954
17	0x3ec0f3b6	0.37685937
18	0x4012f91a	2.296454
19	0x3f97d29c	1.1861148
20	0x3f57e62b	0.84335583
21	0x3f60c08b	0.877938
22	0x3e87cea8	0.26524854
23	0x3f414c2f	0.7550687
24	0x3eadeed5	0.33971277
25	0x400aa9a9	2.1666052
26	0x3f9fb5e9	1.247739
27	0x3fedec43	1.8587726
28	0x3eea3d3b	0.4574984
29	0xbe9d4cab	-0.30722556
30	0x3ece22f3	0.4026104
31	0x3ff6104f	1.9223727

running_mean f4 [32]
0	0x3f11b9f0	0.56924343
1	0x3c7c05c6	0.015382236
2	0x3d27b10b	0.040940326
3	0x3dfd156c	0.123576015
4	0xbe5671e7	-0.20941888
5	0x3d330447	0.04370525
6	0x3d8d5769	0.06901438
7	0xbe003de4	-0.1252361
8	0x3e591328	0.21198714
9	0x3ca33a9d	0.01992541
10	0xbd0fc108	-0.0350962
11	0xbe639e43	-0.22228341
12	0x3d0e312b	0.03471486
13	0x00000004	6e-45
14	0x3e869e71	0.26292756
15	0x3f22ae94	0.63547635
16	0xbe0a73dc	-0.1352076
17	0x3c10f7ff	0.008848189
18	0xbf852e67	-1.0404786
19	0xbf2afe75	-0.6679452
20	0x3e0c8f4e	0.13726541
21	0x3e972b41	0.29525188
22	0x3df94b61	0.121725805
23	0x3e8a6d14	0.27036345
24	0xbbec9ffb	-0.0072212196
25	0x3d29d513	0.04146297
26	0xbe7005d2	-0.2343972
27	0x3e02b23d	0.12763305
28	0xbdcd569c	-0.10026285
29	0x00000004	6e-45
30	0x39c92d19	0.00038371308
31	0x3d06d3cd	0.032916833

running_var f4 [32]
0	0x3ea9c61d	0.3315896
1	0x3c1ddc70	0.009635076
2	0x3b9ad571	0.004725151
3	0x3dfd28fc	0.12361333
4	0x3e3f5c39	0.18687524
5	0x3f427bbf	0.7597007
6	0x3eed31e3	0.46327123
7	0x3ebf8334	0.37404788
8	0x3f2dc2fa	0.67875636
9	0x3fd8f82c	1.6950736
10	0x3ecc3c00	0.39889526
11	0x3e1cb16b	0.15302055
12	0x3c839a11	0.016064676
13	0x00000004	6e-45
14	0x3e30ff83	0.1728497
15	0x3f4f0e8c	0.8088157
16	0x3d93dede	0.07220243
17	0x3bbcfb5c	0.005767269
18	0x3e2e3933	0.17014007
19	0x3e510585	0.20412262
20	0x3da60615	0.08106629
21	0x3ed634c0	0.4183712
22	0x3c158508	0.009125955
23	0x3db6c0a3	0.08923461
24	0x3e59fe11	0.21288325
25	0x3f749244	0.95535684
26	0x3df762bf	0.12079381
27	0x3f964960	1.1741142
28	0x3be65c03	0.0070300116
29	0x00000004	6e-45
30	0x38bf2099	9.1136615e-05
31	0x3d82ef25	0.063932694

weight f4 [16, 32, 1, 1]
0	0x3dec39ac	0.115344375
1	0x3e81a207	0.2531893
2	0x3e2b9139	0.16754617
3	0x3eb55eca	0.3542388
4	0x3ed3e0bc	0.41382396
5	0xbedbc9bd	-0.42927352
6	0x3e22bc86	0.15892228
7	0xbf326a50	-0.6969347
8	0xb9bc0e78	-0.00035868934
9	0xbe2d438c	-0.16920298
10	0xbdafc100	-0.08581734
11	0x3e1bf3af	0.15229677
12	0xbd3d5202	-0.046220787
13	0x23202402	8.681242e-18
14	0x3c7b9dc2	0.015357437
15	0xbe09ff5f	-0.13476323
16	0x3ea4e911	0.32209066
17	0xbd98694f	-0.07441961
18	0xbe45e754	-0.19326526
19	0x3ee18f93	0.4405485
20	0x3e204896	0.1565269
21	0x3dc1b73b	0.094587766
22	0xbee2c108	-0.44287896
23	0xbcfbd157	-0.03073947
24	0xbe263536	-0.16231236
25	0xbddc11ab	-0.107455574
26	0x3e91b099	0.28455046
27	0x3f196a65	0.5992797
28	0x3d70d4dc	0.05879675
29	0x2360842a	1.2171051e-17
30	0x3d81a0e7	0.06329518
31	0x3d65b279	0.056078408
32	0xbe3bf761	-0.18356086
33	0x3d9ff5f4	0.07810584
34	0xbdc392a2	-0.09549452
35	0x3e65a0e7	0.2242466
36	0x3e14968b	0.14510553
37	0xbe9bbf92	-0.30419594
38	0xbd673fa7	-0.056457188
39	0x3e5587b0	0.20852542
40	0xbeb6b099	-0.35681608
41	0xbf1cbda5	-0.61226875
42	0xbd11feb1	-0.035643283
43	0x3ea25852	0.31708008
44	0xbdccc186	-0.09997849
45	0x226dfe85	3.225423e-18
46	0x3ed42b06	0.41439074
47	0xbe31afbd	-0.17352195
48	0xbe88664f	-0.26640555
49	0x3e20d230	0.1570518
50	0xbe88996b	-0.2667955
51	0xbe3150f7	-0.17316042
52	0x3d177ef8	0.03698632
53	0xbe1c44a6	-0.15260562
54	0xbdd3caa7	-0.10341387
55	0xbe802f88	-0.25036263
56	0xbe065618	-0.1311878
57	0x3eb845b4	0.3599068
58	0x3f13d3ac	0.5774486
59	0xbe2dfa91	-0.16990115
60	0x3e3c8983	0.18411832
61	0xa3ca59c1	-2.1938896e-17
62	0xbe3826e5	-0.17983587
63	0xbf052074	-0.52002645
64	0x3f125682	0.5716325
65	0xbddedbf0	-0.108817935
66	0xbe18fa30	-0.14939189
67	0xbdac2053	-0.08404603
68	0xbe75878f	-0.23977493
69	0xbdcb6472	-0.09931268
70	0x3cdd3b28	0.027005747
71	0x3d3009ea	0.042978205
72	0xbdf99958	-0.12187451
73	0x3deadb53	0.11467614
74	0xbe05d9c2	-0.1307135
75	0x3e2c88a0	0.16848993
76	0xbee8d6f6	-0.45476502
77	0x23061897	7.269362e-18
78	0x3b933113	0.004491934
79	0x3ecb72f1	0.3973613
80	0x3e3840ce	0.17993471
81	0xbdd04f8c	-0.10171422
82	0x3f662085	0.8989337
83	0xbce4446b	-0.027864655
84	0xbdfb2bda	-0.122642234
85	0xbfc24de8	-1.5180025
86	0xbce69ccf	-0.028150944
87	0x3facf37e	1.3511808
88	0x3d950180	0.07275677
89	0x3d8baf85	0.06820587
90	0xbd3cb785	-0.046073455
91	0x3f041de5	0.51608115
92	0x3bb51c13	0.0055270283
93	0x237d1ec0	1.3721669e-17
94	0xbd5de74d	-0.054175664
95	0xbdce2b69	-0.100668736
96	0xbe9179c5	-0.28413215
97	0xbc2eaafd	-0.010660884
98	0x3e33d764	0.17562634
99	0xbe09ccbf	-0.1345701
100	0x3ef041f7	0.46925327
101	0xbe2f121c	-0.17096752
102	0x3e07d46b	0.13264625
103	0x3db857df	0.09001135
104	0x3ee9a26f	0.4563174
105	0x3eb3511c	0.3502282
106	0x3e2ef466	0.17085418
107	0x3ec64118	0.38721538
108	0xbd246150	-0.040131867
109	0xa30cd2ac	-7.634027e-18
110	0x3e6dfa77	0.23240076
111	0xbf0e41e1	-0.55569273
112	0xbdebeae6	-0.11519413
113	0xbe1f04cd	-0.15529175
114	0x3dc5f566	0.09665947
115	0x3f625269	0.88407
116	0x3dfe78b8	0.12425369
117	0xbebd49de	-0.3697042
118	0xbe3ac526	-0.18239269
119	0xbe356fc8	-0.17718422
120	0xbf0881d4	-0.533231
121	0xbdace6a8	-0.08442432
122	0xbe84d1e7	-0.25941393
123	0xbe57e5cc	-0.21083754
124	0x3c2975fd	0.010343072
125	0x2209d1da	1.8678057e-18
126	0xbe9f1813	-0.31073055
127	0xbe1ac87b	-0.1511554
128	0xbdba64db	-0.09101268
129	0xbe5689b0	-0.20950961
130	0xbde24842	-0.11048938
131	0xbe06d65f	-0.13167714
132	0xbe4a8647	-0.19777785
133	0x3dc467ea	0.095901325
134	0x3f9c63b4	1.2217927
135	0xbe585935	-0.2112778
136	0x3fe6094a	1.7971585
137	0x3dfb8abd	0.122823216
138	0xbdb38107	-0.087648444
139	0xbe612296	-0.2198585
140	0x3d9bbfb1	0.076049216
141	0x21d8211b	1.4645492e-18
142	0x3e0dcdd8	0.13848054
143	0x3e8d3c18	0.2758491
144	0x3cdaf100	0.026726246
145	0xbb9de7a7	-0.004818875
146	0xbd9de534	-0.07709733
147	0xbdf65dff	-0.12029647
148	0xbde2b568	-0.11069757
149	0xbe7eac0a	-0.24870315
150	0x3d8dd3ce	0.06925164
151	0xbe11d61b	-0.14241831
152	0x3e1b754e	0.15181467
153	0x3e1110cd	0.14166565
154	0xbde8847b	-0.11353394
155	0xbd8275eb	-0.06370147
156	0xbc85ddda	-0.016341139
157	0xa1b2c4f0	-1.2113878e-18
158	0xbd0e4770	-0.034736097
159	0x3e1f425b	0.15552656
160	0x3e5b9766	0.21444473
161	0xbdd26038	-0.102722585
162	0xbeb63516	-0.35587376
163	0x3e5a6b65	0.2133003
164	0xbe2086bb	-0.15676396
165	0xbbe4b597	-0.006979655
166	0xba0fc315	-0.00054840866
167	0xbe36c8cf	-0.1785004
168	0xbeaec827	-0.3413708
169	0xbe977e15	-0.2958838
170	0xbe3ad4f0	-0.18245292
171	0x3ecca63d	0.3997058
172	0xbd74e047	-0.0597842
173	0x2313883d	7.9977355e-18
174	0x3cb947d8	0.022617266
175	0xbe9fac23	-0.31186017
176	0x3d4b8618	0.04968843
177	0x3d0399d5	0.032129128
178	0x3efcff1d	0.49413386
179	0x3f8ded3c	1.1088023
180	0xbeffb98d	-0.49946252
181	0xbdd4789a	-0.103745654
182	0x3efa4c75	0.48886457
183	0x3ddccf36	0.1078171
184	0x3e19c2ef	0.15015768
185	0x3e3af935	0.18259127
186	0x3ec41c73	0.38302955
187	0xbe07ef5b	-0.132749
188	0x3d8edcc3	0.06975701
189	0xa318b064	-8.277289e-18
190	0xbc99f22c	-0.018792234
191	0x3ebb38ca	0.36566764
192	0x3d5a6a45	0.053324003
193	0xbe733d87	-0.2375394
194	0xbe53f20e	-0.20697805
195	0x3c57970f	0.013158574
196	0xbd1cfdfe	-0.038328163
197	0x3db739c4	0.08946565
198	0xbd9f7c5e	-0.07787393
199	0xbe086b5e	-0.13322207
200	0xbc99961a	-0.018748332
201	0xbb3aa62c	-0.0028480394
202	0x3c8b7627	0.017024113
203	0x3df70ab8	0.12062591
204	0x3a721dba	0.0009235997
205	0xa2b666a0	-4.9439857e-18
206	0x3f43f12b	0.7653987
207	0xbe0a64fd	-0.13515086
208	0x3da8cf0c	0.08242616
209	0x3d569555	0.052388508
210	0x3fc2c455	1.5216166
211	0xbe560569	-0.20900501
212	0x3c320e05	0.0108676
213	0x3e8ba2fc	0.27272785
214	0x3c34bcf6	0.01103138
215	0x3ebe2377	0.37136433
216	0x3cf8513e	0.030312177
217	0x3d73da66	0.059534453
218	0xbda398f2	-0.079881564
219	0xbf950258	-1.164134
220	0xbd89741a	-0.06711598
221	0xa1974725	-1.025099e-18
222	0xbd47e0f1	-0.048798505
223	0x3cbc4997	0.02298431
224	0xbdc0d6b0	-0.094159484
225	0xbead7eab	-0.33885702
226	0xbed51b35	-0.4162232
227	0xbe138501	-0.14406206
228	0xbebc3428	-0.36758542
229	0x3f15810a	0.58400023
230	0xbec6f519	-0.3885887
231	0x3d36a63d	0.04459213
232	0xbe713693	-0.23555975
233	0xbdec472a	-0.11537011
234	0xbeb85031	-0.3599868
235	0x3e064a37	0.13114248
236	0xbed89cf3	-0.42307243
237	0x222b1ffc	2.3191754e-18
238	0xbeca837c	-0.3955344
239	0xbe58ac52	-0.21159485
240	0xb95efd51	-0.00021265938
241	0x3e999401	0.2999573
242	0x3e13c0e9	0.14429058
243	0x3e46137a	0.19343367
244	0x3e9691d9	0.29408148
245	0xbd326257	-0.043550815
246	0xbe028e8c	-0.1274969
247	0xbeaf1a2c	-0.34199655
248	0x3f1e0eba	0.6174122
249	0x3e4bec9b	0.19914477
250	0xbf564f8a	-0.83715117
251	0xbe0e0f4c	-0.13873023
252	0xbeb72d38	-0.35776687
253	0x23403156	1.0418788e-17
254	0x3e8dfb80	0.27730942
255	0xbead01c7	-0.33790419

weight f4 [16]
0	0x3fe25d78	1.7684774
1	0x3fc5bcf2	1.5448287
2	0x3ff96ea7	1.9486893
3	0x3fd2b5a9	1.6461688
4	0x3fe48355	1.7852579
5	0x3feb6b37	1.8392094
6	0x3ff9b342	1.950783
7	0x4006f4e8	2.108698
8	0x40086d60	2.1316757
9	0x401cd8d8	2.450735
10	0x3fdb89a6	1.7151382
11	0x3fdf306f	1.7436656
12	0x3fd97354	1.698832
13	0x4010ca2a	2.262339
14	0x3fe15c8c	1.7606368
15	0x3ff576d2	1.9176886

bias f4 [16]
0	0x3d34bb84	0.04412414
1	0xbd4a3624	-0.04936804
2	0x3d9648dd	0.07338116
3	0xbc2bb4f8	-0.010480158
4	0x3d37fdb7	0.044919696
5	0xbd598789	-0.053107772
6	0xbcdff60f	-0.02733901
7	0x391382cb	0.00014067737
8	0x3c5e522f	0.013569399
9	0xbcf76bfa	-0.030202854
10	0x3cdb7c97	0.026792808
11	0x3d161e4a	0.03664998
12	0xbbe9a16c	-0.0071298387
13	0x3cbfee20	0.023428977
14	0x3c747876	0.014921298
15	0xbd7243d4	-0.059146717

running_mean f4 [16]
0	0x3ee827df	0.4534292
1	0xc0111f43	-2.267533
2	0x403277f3	2.7885711
3	0x3f602c13	0.8756725
4	0x40848b51	4.1420064
5	0x3fe923e0	1.8214073
6	0x40142367	2.3146608
7	0xc037a74a	-2.8695855
8	0xc017f0dd	-2.3740761
9	0x4085930b	4.1741996
10	0x40162041	2.3457186
11	0xbf133a5b	-0.5751092
12	0xbfdfd8bb	-1.7488016
13	0xc09f7773	-4.983331
14	0x3fc75953	1.5574135
15	0x40b3bdbb	5.6169105

running_var f4 [16]
0	0x402ef111	2.7334635
1	0x3fb0fd0e	1.3827226
2	0x40b576cd	5.670752
3	0x3fa59265	1.2935301
4	0x40053b36	2.081739
5	0x3fda4e5c	1.7055163
6	0x40bc1d4c	5.8785763
7	0x40128535	2.2893803
8	0x411befe0	9.746063
9	0x41072184	8.445683
10	0x3fec0038	1.8437567
11	0x3f2b5938	0.6693301
12	0x3f9fa527	1.2472275
13	0x40ca8805	6.329104
14	0x3fd74b59	1.6819869
15	0x404a1193	3.1573226

weight f4 [77, 16, 1, 1]
0	0xbe103d4b	-0.14085881
1	0xbe958342	-0.29201704
2	0x3e09d525	0.13460214
3	0xbe6f1087	-0.23346148
4	0x3c3aef30	0.011409566
5	0x3e96598d	0.29365197
6	0xbd529bbd	-0.051418055
7	0xbe7c7f7f	-0.24658011
8	0x3da0c4f0	0.07850063
9	0xbd235041	-0.039871458
10	0xbea28d73	-0.31748542
11	0x3cfe5be5	0.031049678
12	0xbdc830eb	-0.09774955
13	0x3d21813b	0.039429884
14	0xbc111820	-0.0088558495
15	0x3d2773f1	0.040882055
16	0x3d061694	0.032736376
17	0xbe02b4aa	-0.1276423
18	0x3f0d245e	0.55133617
19	0x3e809957	0.2511699
20	0x3e41ce96	0.18926463
21	0x3eacf426	0.3378002
22	0xbdf19d89	-0.117976256
23	0xbceb5d7c	-0.0287311
24	0xbf9e5c2c	-1.2371879
25	0xbf0cb3c4	-0.549618
26	0x3e16bced	0.14720507
27	0x3c7c0035	0.015380909
28	0xbe76d4fc	-0.24104685
29	0x3e4e6d08	0.2015878
30	0x3e04b384	0.12959105
31	0xbd0f893e	-0.035042994
32	0xbd4a43c8	-0.049381047
33	0x3d6822d5	0.056673843
34	0xbde3050e	-0.110849485
35	0xbe5d4dc0	-0.2161169
36	0x3e287fc6	0.16454992
37	0xbeed735a	-0.4637707
38	0x3e1b29a6	0.15152606
39	0xbc5565c1	-0.013024748
40	0xbf147cc0	-0.58002853
41	0xbe461426	-0.19343624
42	0xbe0c7917	-0.13718067
43	0xbd30ab01	-0.043131832
44	0x3e631ca3	0.22178893
45	0x3d1fbdf8	0.038999528
46	0xbe189d0d	-0.1490366
47	0x3cbb560e	0.022868183
48	0xbc1627fd	-0.009164807
49	0xbcb66278	-0.02226375
50	0xbd84702f	-0.0646671
51	0xbe309b49	-0.17246737
52	0xbe0dc475	-0.13844474
53	0xbe047563	-0.12935404
54	0xbd04bedb	-0.032408576
55	0xbd919d73	-0.07110109
56	0xb985f40c	-0.00025549566
57	0x3d605aea	0.054774202
58	0xbd8f4536	-0.06995623
59	0xbeb3a830	-0.35089254
60	0x3de4c3fc	0.111701936
61	0xbdd60ec4	-0.10452035
62	0x3e68ca2d	0.22733374
63	0x3bcc6a2d	0.006238243
64	0xbe240d18	-0.1602062
65	0xbe94231c	-0.28933036
66	0x3d824d6c	0.06362423
67	0x3e91ecab	0.28500876
68	0x3f555029	0.8332544
69	0xbd9a4b58	-0.07533902
70	0xbd8d57d7	-0.0690152
71	0xbd45ca65	-0.04828872
72	0x3da3d9e5	0.080005445
73	0xbefe5635	-0.49675146
74	0xbdf74f70	-0.120756984
75	0x3e3988e1	0.18118621
76	0x3e3a3006	0.18182382
77	0xbddd376d	-0.10801587
78	0x3ab588a8	0.0013849931
79	0xbe63e881	-0.22256662
80	0x3e44fec7	0.19237815
81	0xbe2ea4d1	-0.1705506
82	0x3e282593	0.16420583
83	0xbdf42a60	-0.11922145
84	0xbca2e828	-0.019886091
85	0x3c677623	0.014127287
86	0xbf9a6c01	-1.206421
87	0x3dd48830	0.10377538
88	0xbe48ce0b	-0.19609849
89	0x3eeb7e7c	0.45994937
90	0x3d98df5d	0.07464478
91	0x3d0c8a7f	0.034311768
92	0x3dd4e253	0.103947304
93	0xbf0bf7a2	-0.5467473
94	0x3df2d2d4	0.118566185
95	0x3ad0c0d6	0.001592661
96	0x3f1850de	0.59498394
97	0xb9ab9cbb	-0.00032732435
98	0xbe43ae1b	-0.19109385
99	0x3df06ad1	0.117391236
100	0x3b7bd032	0.0038423655
101	0x3e4458a9	0.19174446
102	0x3f2b5968	0.669333
103	0xbeba97d5	-0.36443964
104	0x3d88eeaa	0.066861466
105	0x3eb34d25	0.35019794
106	0xbea7dc25	-0.32785144
107	0xbcd7fa41	-0.026364448
108	0xbc482fd0	-0.012218431
109	0x3f5622a7	0.83646625
110	0xbdbfd72f	-0.09367215
111	0xbe686e98	-0.22698438
112	0xbd9cbdaa	-0.07653363
113	0x3de19af2	0.110158816
114	0xbda55fe0	-0.08074927
115	0xbe5d5289	-0.21613516
116	0x3d857633	0.06516685
117	0x3d4cde8f	0.050016936
118	0xbe562994	-0.20914298
119	0x3e13d5a4	0.14436966
120	0xbe344d99	-0.17607726
121	0x3f7071db	0.9392373
122	0xbd7822ee	-0.060580187
123	0xbc295382	-0.010334851
124	0xbcdc7769	-0.026912408
125	0x3f4d97b8	0.8030963
126	0xbe2f0a00	-0.17093658
127	0xbf0b0db2	-0.5431777
128	0x3db40b84	0.08791259
129	0x3de79b6b	0.113089405
130	0x3d6df30b	0.058093112
131	0x3d66adc5	0.056318063
132	0x3d20a820	0.039222836
133	0x3cdbae59	0.026816534
134	0x3dcd7db7	0.10033744
135	0xbe9703fe	-0.29495233
136	0x3e0ed07a	0.13946715
137	0x3c3c3a6f	0.011488541
138	0xbe814805	-0.2525026
139	0x3e4821ab	0.19544093
140	0xbe4a7f78	-0.19775188
141	0x3de397bc	0.111129254
142	0x3c823b16	0.015897315
143	0x3d8e5f55	0.06951777
144	0xbf110292	-0.56644547
145	0x3d82b89c	0.06382868
146	0x3de71f91	0.11285318
147	0x3d4512e3	0.048113715
148	0xbcdb52ea	-0.026772935
149	0x3dd6c7e3	0.10487344
150	0x3d00f7d8	0.031486362
151	0x3f35cee1	0.710188
152	0x3c13a909	0.009012469
153	0x3e12ae25	0.14324243
154	0x3e251a32	0.16123274
155	0xbe0e5a19	-0.13901557
156	0xbe3cfdbe	-0.1845617
157	0x3e8303ab	0.25588736
158	0x3e9b9690	0.30388308
159	0x3a590dd2	0.00082799525
160	0x3e02efb5	0.12786753
161	0xbe30c3fe	-0.17262265
162	0x3e217acc	0.157695
163	0xbe2591fa	-0.16168967
164	0xbddbaa3b	-0.10725828
165	0x3d56ab1f	0.052409288
166	0xbea9c648	-0.3315909
167	0x3e405ddb	0.18785803
168	0xbdacfb4b	-0.08446368
169	0x3e39f85e	0.18161151
170	0x3ecdb886	0.40179843
171	0x3bae708f	0.0053234766
172	0x3eb777e1	0.35833648
173	0xbe8fceb7	-0.28087398
174	0x3ddd31d5	0.1080052
175	0x3e023b95	0.12718041
176	0x3e70d412	0.23518398
177	0x3e2b3078	0.16717708
178	0x3ca5189f	0.020153342
179	0x3ea49a6e	0.3214907
180	0xbd738411	-0.05945212
181	0xbd7c8391	-0.06164891
182	0x3f02bedb	0.5107247
183	0xbeb51846	-0.35370082
184	0x3e3e0b8c	0.18559092
185	0xbead1d64	-0.33811486
186	0x3ccbaaa3	0.02486164
187	0xbe010ff9	-0.1260375
188	0x3e443ea8	0.19164526
189	0x3e462759	0.19350947
190	0xbe8452f5	-0.2584454
191	0x3e2b24d1	0.16713263
192	0xbe76d598	-0.24104917
193	0x3d2265d8	0.039647907
194	0xbcce667f	-0.025195358
195	0x3ddc1deb	0.10747894
196	0x3dfd0f84	0.12356475
197	0xbebe9062	-0.3721953
198	0x3e217454	0.15767032
199	0x3dbc2a09	0.09187705
200	0x3da7e862	0.081986204
201	0xbe80a0df	-0.25122735
202	0xbec6a982	-0.388012
203	0xbe384ec7	-0.17998801
204	0xbe508353	-0.20362596
205	0xbd3b3718	-0.04570684
206	0x3ee77c7b	0.4521216
207	0x3e59e39f	0.21278237
208	0x3cd12d4b	0.025534293
209	0xbe5e0971	-0.21683289
210	0xbdec7030	-0.115448356
211	0x3f11955a	0.5686852
212	0x3eb50aa6	0.35359687
213	0xbe6897d6	-0.22714171
214	0xbd291e3d	-0.041288603
215	0x3e946df3	0.28990135
216	0x3d82fbd1	0.063956864
217	0x3e009bff	0.12559508
218	0x3d534f38	0.05158922
219	0xbeba1c9e	-0.36349958
220	0x3eda5af4	0.42647517
221	0xbca6f0a2	-0.020378415
222	0xbec36b78	-0.3816793
223	0xbe631561	-0.22176124
224	0xbe6a6ad0	-0.22892308
225	0x3e940a74	0.28914225
226	0xbb6b87c4	-0.0035939077
227	0xbe4e220b	-0.20130174
228	0xbbd2d052	-0.006433525
229	0xbf0f5597	-0.55989975
230	0x3d1a04ce	0.03760224
231	0x3deada70	0.11467445
232	0x3dd4f2b2	0.10397853
233	0xbe01432f	-0.12623285
234	0xbe9c4dd0	-0.30528116
235	0xbe25141e	-0.16120955
236	0xbde04f74	-0.109526545
237	0x3e05d4c3	0.13069443
238	0xbe39106f	-0.18072675
239	0x3d1107b2	0.03540773
240	0x3c57fbed	0.013182622
241	0xbbbe0f25	-0.005800145
242	0xbbaee62a	-0.0053374963
243	0xbe67d2d9	-0.22639026
244	0x3d203a7e	0.039118282
245	0x3e6e6bd9	0.23283328
246	0x3d0fb940	0.035088778
247	0x3ec1741f	0.37783906
248	0x3d17db4d	0.037074376
249	0xbc685ea6	-0.014182722
250	0x3d24852d	0.04016607
251	0x3dc7790c	0.09739885
252	0xbe1abf08	-0.15111935
253	0xbd2dc5fd	-0.042425144
254	0xbeb8afdf	-0.3607168
255	0x3ddd9cc2	0.10820915

weight f4 [77]
0	0x3f388081	0.7207108
1	0x3fb76bff	1.4329833
2	0x3e7fe0fb	0.24988167
3	0x3e5a3982	0.21311
4	0x403fe12a	2.998118
5	0x3f52f821	0.82409865
6	0x40406fd8	3.0068264
7	0x3ef71ce2	0.48264223
8	0x3e0e9354	0.13923389
9	0x3f1d529b	0.6145417
10	0x3ed703da	0.41995126
11	0x3f9c05ec	1.2189307
12	0x3ebfb140	0.3743992
13	0x3ee8b715	0.4545218
14	0x3eb9e89b	0.36310276
15	0x3e91b481	0.28458026
16	0x3f1fb428	0.6238427
17	0x3f3578a2	0.70887196
18	0x3e6ff686	0.23433885
19	0x3e30a607	0.17250834
20	0x3eec4ac4	0.46150792
21	0x3eb58837	0.35455486
22	0x3f14e966	0.5816864
23	0x3f123ab2	0.5712081
24	0x3dfeba7a	0.12437911
25	0x3ed12afc	0.40853107
26	0x3f3030d1	0.6882449
27	0x3f362fe1	0.7116681
28	0x3f2d8db7	0.67794365
29	0x3f02b28a	0.5105368
30	0x3f70174e	0.9378556
31	0x3ecd3ce4	0.40085518
32	0x3fa64b1a	1.2991669
33	0x3ead0543	0.33793077
34	0x3efd7dbd	0.49509993
35	0x3f475cf0	0.77876186
36	0x3e6f8ab8	0.23392761
37	0x3ea0edc5	0.31431404
38	0x3f10b01c	0.5651872
39	0x3ebcc731	0.3687072
40	0x3f32e7c0	0.6988487
41	0x3ec896da	0.3917759
42	0x3eda7d16	0.42673558
43	0x3fd54bee	1.6663797
44	0x3e99141f	0.29898164
45	0x3e1430fa	0.14471808
46	0x3f047b57	0.517507
47	0x3f8b043e	1.086067
48	0x3f0f0ce3	0.5587904
49	0x3fc7ec71	1.5619031
50	0x3f2b8e63	0.6701414
51	0x3f54eb86	0.8317188
52	0x3f0c7e86	0.5488056
53	0x3e029755	0.12753041
54	0x3f31aab2	0.69401085
55	0x3e9f64ed	0.31131688
56	0x3eefbfb3	0.46825942
57	0x3edd82d7	0.43263885
58	0x3f07d256	0.5305532
59	0x3feff66f	1.874708
60	0x3fcb8c70	1.5902233
61	0x3f2ff9b4	0.6874039
62	0x3f19f2d8	0.60136175
63	0x3f144a9d	0.5792635
64	0x409f030c	4.969122
65	0x3f1597cc	0.5843475
66	0x3f47de67	0.78073734
67	0x3faaeaa1	1.3352853
68	0x3ee3d4a3	0.44498166
69	0x3edee582	0.43534476
70	0x3ecd8c73	0.40146217
71	0x3f7b4a0c	0.9815986
72	0x3f0dc36f	0.55376333
73	0x3f1e8a7e	0.6193007
74	0x3f1ccbd6	0.6124853
75	0x3f8cab09	1.0989696
76	0x3f13085c	0.5743463

bias f4 [77]
0	0x3f3753de	0.71612346
1	0x3f221648	0.6331525
2	0x3e670e29	0.22563995
3	0x3f3ad0a7	0.7297463
4	0x3f66fd4f	0.9023027
5	0x3c65a5c2	0.0140165705
6	0x3f6ced7f	0.9254989
7	0x3e2a278f	0.16616653
8	0x3ef85600	0.48503113
9	0x3fea66b0	1.8312588
10	0x3f4b02ed	0.7930134
11	0x3f7c9aff	0.98674005
12	0x3e9f4a34	0.311113
13	0xbe7c2821	-0.24624683
14	0xbe413cb9	-0.1887082
15	0x3f6b1496	0.91828287
16	0xbc3d9da8	-0.011573233
17	0xbc759a7c	-0.014990445
18	0x3f407363	0.75176066
19	0x3f0eea91	0.5582667
20	0x3eb082e7	0.3447487
21	0x3f4accfa	0.7921902
22	0x3e159a30	0.14609599
23	0x3f7fb1b3	0.9988052
24	0x3f4b21fc	0.7934873
25	0xbe61365d	-0.21993394
26	0xbdd2cb8d	-0.102927305
27	0xbe250ef2	-0.16118982
28	0x3f6a6809	0.91564995
29	0x3f42126f	0.7580938
30	0x3f9d46f0	1.2287273
31	0xbe7f9024	-0.24957329
32	0x3f6e1639	0.9300266
33	0x3f2b5cfc	0.6693876
34	0x3ecd780a	0.40130645
35	0x3c844554	0.01614634
36	0x3f2c2910	0.67250156
37	0x3fabce82	1.3422396
38	0x3edc4944	0.43024647
39	0x3f24fe25	0.64450294
40	0xbdffae5d	-0.12484429
41	0x3f83c16d	1.0293404
42	0x3f959aa4	1.1687818
43	0x3f8bf12a	1.0932972
44	0x3f3e2e79	0.7428966
45	0x3f464b83	0.7745897
46	0x3f6450b4	0.89185643
47	0x3caa6ec5	0.020804772
48	0x3f53f729	0.8279901
49	0xbe0ac99d	-0.13553472
50	0xbe71b266	-0.2360321
51	0x3ed1fa77	0.41011402
52	0xbe3496fe	-0.17635724
53	0x3ee2a535	0.44266668
54	0xbef92439	-0.48660448
55	0x3f84f4c5	1.0387198
56	0x3ebcb528	0.3685696
57	0x3e72096d	0.23636408
58	0x3dac775d	0.08421204
59	0x3f88023f	1.0625685
60	0x3fa048be	1.2522199
61	0x3b936890	0.004498549
62	0xbc8bd1ab	-0.01706775
63	0xbe6d72fb	-0.23188393
64	0x3f8e188c	1.1101241
65	0x3fa594f0	1.2936077
66	0x3f82d305	1.0220648
67	0x3fe6614f	1.7998446
68	0x3e7409d3	0.23831873
69	0x3ef73563	0.48282918
70	0xbe3cd23f	-0.18439578
71	0x3da0f6a7	0.07859545
72	0xbe79e713	-0.24404554
73	0xbeec6ad3	-0.4617525
74	0xbe22f239	-0.15912713
75	0xbe01c1cd	-0.12671585
76	0xbea95f06	-0.3308031

running_mean f4 [77]
0	0x3a682794	0.0008855995
1	0x3d5e770d	0.054312754
2	0x3bb4d43f	0.005518466
3	0xbc8d3ae8	-0.017240003
4	0x3da5d8bb	0.08097979
5	0x3d1543da	0.03644166
6	0xbba4985e	-0.0050230464
7	0x3c16a93a	0.00919562
8	0x3ad254ba	0.0016046979
9	0xbcac5c78	-0.021040186
10	0x3c9592ef	0.01825854
11	0xbc756f00	-0.014980078
12	0xbc06bafc	-0.0082232915
13	0x3c7e3e17	0.015517733
14	0xbb7859a6	-0.0037895232
15	0xbc711ba2	-0.014716061
16	0xbd07680f	-0.033058222
17	0xbc845f55	-0.01615874
18	0x372e26d9	1.0380253e-05
19	0xbc19d6d7	-0.009389601
20	0x3b5a6db1	0.0033329541
21	0x3d6dda22	0.058069356
22	0xbb776318	-0.0037748273
23	0x3b8b7b02	0.004256607
24	0xbd35cd0c	-0.044385
25	0x3b8cd6b6	0.0042980565
26	0xbd490fb7	-0.049087252
27	0xb910d04b	-0.00013810505
28	0xbc68499c	-0.014177706
29	0xbb3e0d41	-0.00289996
30	0x3dd0c974	0.10194674
31	0xbca1ca45	-0.01974977
32	0x3cdf6ca6	0.027273487
33	0x3d29a376	0.041415654
34	0x3c8de39c	0.017320447
35	0xbbbb7066	-0.005720186
36	0xbc88fa1a	-0.01672082
37	0xbd05f671	-0.032705728
38	0xbe2816c9	-0.16414942
39	0xbd0796e9	-0.033102904
40	0xbc784465	-0.015153025
41	0xbc8b7b6d	-0.017026627
42	0x3c2bb5de	0.010480372
43	0xbd9854a0	-0.07438016
44	0x3d3b3095	0.04570063
45	0x3cf0de9e	0.029403027
46	0xbd13fd4b	-0.03613023
47	0x3d378561	0.044804934
48	0xbcd6f3b2	-0.02623925
49	0x3cb1c54f	0.02170053
50	0xbceda5f3	-0.029009795
51	0xbd3346ce	-0.043768696
52	0xbd0d5e7f	-0.034513947
53	0xbc76196c	-0.0150207095
54	0x3da0c359	0.078497596
55	0xbc97b502	-0.018518928
56	0x3dbd14a2	0.09232451
57	0x3d619a4a	0.055078782
58	0x3bebec00	0.0071997643
59	0x3d0f3326	0.03496089
60	0x3ccf40ed	0.025299514
61	0xbd4d96ae	-0.050192527
62	0xbdd9c263	-0.106327794
63	0x3d699ff0	0.057037294
64	0x3d395e10	0.04525572
65	0xbc974a35	-0.018468002
66	0x3cc303ca	0.023805518
67	0x3dfc33c6	0.123145625
68	0xbc82a021	-0.015945496
69	0x3c9210f6	0.017830353
70	0x3b980d24	0.0046402384
71	0x3d9be202	0.07611467
72	0xbd188c2e	-0.03724306
73	0xbd21b1b8	-0.039476126
74	0xbc99a494	-0.018755235
75	0x3b59bf3a	0.0033225552
76	0x3d54bdd2	0.05193884

running_var f4 [77]
0	0x3f55082a	0.8321558
1	0x413b6e98	11.7145
2	0x4045b0bb	3.0889118
3	0x3f5ae680	0.85507965
4	0x409b8b02	4.8607187
5	0x41027c31	8.15532
6	0x411b9676	9.724234
7	0x411e22b1	9.88347
8	0x4005266b	2.0804698
9	0x40c3766b	6.1082053
10	0x4090248f	4.5044627
11	0x408e87af	4.454063
12	0x40850dab	4.1579185
13	0x405cd757	3.4506433
14	0x4031f6ea	2.7806954
15	0x401bc1a9	2.433695
16	0x40567d7c	3.351409
17	0x40b8dbd8	5.7768364
18	0x3fdb3ad5	1.7127329
19	0x3f6fdeda	0.9369942
20	0x40859103	4.1739516
21	0x411a3dfd	9.640134
22	0x41047da0	8.28067
23	0x3f143e54	0.57907605
24	0x4035d9a4	2.8414087
25	0x403e8545	2.9768841
26	0x40cb46e7	6.352405
27	0x41101290	9.004532
28	0x40073467	2.1125734
29	0x400f35b3	2.2376525
30	0x40d5a7b2	6.6767206
31	0x40552020	3.3300858
32	0x40975c50	4.7300186
33	0x412f3272	10.949816
34	0x400a7fd9	2.1640532
35	0x410fe337	8.992972
36	0x3fd91cb5	1.6961886
37	0x40581095	3.376012
38	0x40e78306	7.234744
39	0x3f704b60	0.93865013
40	0x40ec5c28	7.3862495
41	0x3f4fb266	0.8113159
42	0x42084fc6	34.077904
43	0x40862af5	4.192744
44	0x408781f9	4.234616
45	0x4000b9fc	2.0113516
46	0x3fbf40ba	1.4941628
47	0x408ccced	4.4000154
48	0x401513c4	2.3293314
49	0x3fdd94cd	1.7311035
50	0x40fd66e3	7.9188094
51	0x40ea66ca	7.3250475
52	0x4088efba	4.2792635
53	0x3eff124b	0.49818644
54	0x41a96d9b	21.178518
55	0x4046a76f	3.1039693
56	0x40d540b7	6.6641498
57	0x40062cb0	2.0964775
58	0x4029c5ca	2.652697
59	0x4134175a	11.255701
60	0x40a2c3e2	5.0864115
61	0x4177ebe0	15.495087
62	0x411b77c9	9.716744
63	0x40bc2359	5.879315
64	0x4111e700	9.1188965
65	0x40fc9c68	7.8940926
66	0x40a25103	5.072389
67	0x410f4e99	8.956689
68	0x40962778	4.692318
69	0x4043344a	3.0500665
70	0x3fcd3ab4	1.603354
71	0x40da3c4f	6.819862
72	0x409a64ce	4.8248053
73	0x417f76ca	15.966501
74	0x40b48862	5.6416483
75	0x410a1c8e	8.631971
76	0x40c526ce	6.160987

weight f4 [77, 1, 3, 3]
0	0xbdf0e839	-0.11763043
1	0xbe14cbc3	-0.14530854
2	0xbdf162eb	-0.11786445
3	0x3e21c39d	0.15797277
4	0x3ebf7743	0.37395677
5	0x3ec6764b	0.38762125
6	0xbdc21b62	-0.09477879
7	0xbe52492c	-0.20535725
8	0xbe7cd7da	-0.24691716
9	0x3ec7ce99	0.3902481
10	0x3e3aee3d	0.18254943
11	0x3e7f974c	0.24960059
12	0x3deec4b2	0.116586104
13	0xbe294a81	-0.16532327
14	0xbe308677	-0.17238794
15	0xbe8d79b1	-0.27631906
16	0xbf0d3c09	-0.5516973
17	0xbf076675	-0.5289071
18	0x3e61180b	0.21981828
19	0x3e0ee9a4	0.13956314
20	0x3e5b752f	0.2143142
21	0x3ddb5457	0.10709446
22	0x3e771c35	0.24131854
23	0x3e06ebd2	0.13175896
24	0xbcba8537	-0.0227686
25	0xbe437997	-0.19089352
26	0xbea5edb0	-0.32407904
27	0x3d085e37	0.033292975
28	0x3df8cc8d	0.1214839
29	0xbe17aba0	-0.14811563
30	0xbd96d14a	-0.073641375
31	0x3e49b9cb	0.1969978
32	0xbdad9c80	-0.08477116
33	0xbe504ed2	-0.20342568
34	0xbf22294e	-0.63344276
35	0x3e45767c	0.1928348
36	0xbed8a2a5	-0.42311588
37	0xbd8cef73	-0.06881609
38	0x3f061916	0.5238203
39	0xbef8dad5	-0.48604456
40	0xbda5f65c	-0.0810363
41	0x3f1822f4	0.59428334
42	0xbf027a9e	-0.5096835
43	0xbe3a10a9	-0.18170418
44	0x3eb503c3	0.35354432
45	0x3cf53013	0.02993015
46	0x3e639035	0.2222298
47	0x3e077bd7	0.13230835
48	0x3e22362a	0.15840974
49	0x3e85524a	0.26039344
50	0x3ddd6c52	0.10811676
51	0x3de21825	0.110397615
52	0x3e179dda	0.1480631
53	0x3a7a6a6e	0.00095526024
54	0x3e4a0408	0.197281
55	0xbed22e43	-0.4105092
56	0xbf105e83	-0.56394213
57	0xbd23d6a9	-0.039999638
58	0xbe6cd823	-0.23129325
59	0x3c0f0b2a	0.008730689
60	0xbe47d54d	-0.19514962
61	0xbe4e70d1	-0.20160224
62	0x3eaf9f00	0.34300995
63	0x3e043103	0.12909321
64	0x3dfeccc6	0.12441401
65	0x3ddf2c39	0.10897107
66	0xbd8c3df4	-0.06847754
67	0x3e363be8	0.1779629
68	0x3eb6c6fe	0.35698694
69	0xbe83952c	-0.25699747
70	0x3d34a11e	0.044098966
71	0x3e98ee52	0.29869324
72	0xbda66e51	-0.0812651
73	0xbe94c3ef	-0.29055735
74	0xbe69dea3	-0.22838835
75	0xbe547ea7	-0.20751439
76	0xbe7873c8	-0.24262917
77	0xbcd6e09c	-0.026230149
78	0x3e087bf1	0.1332853
79	0x3ea86dcf	0.32896277
80	0x3ee6ca86	0.45076388
81	0xbe7cc6f3	-0.24685268
82	0xbf04dc24	-0.5189841
83	0xbe26f85a	-0.16305676
84	0xbf17a439	-0.5923496
85	0xbe208910	-0.15677285
86	0x3eff98f6	0.49921387
87	0xbe0e318a	-0.13886085
88	0x3efc6ffc	0.49304187
89	0x3f0c4061	0.54785734
90	0xbee800cd	-0.4531311
91	0xbf00d03d	-0.50317746
92	0xbf025d5a	-0.50923693
93	0xbd00a2bb	-0.031405192
94	0x3cee481b	0.029087117
95	0xbd95600f	-0.07293712
96	0x3ec9d4ab	0.39420065
97	0x3efba7b1	0.49151376
98	0x3ed168ff	0.40900418
99	0xbdf7d7ac	-0.12101683
100	0xbf03cc2e	-0.5148343
101	0xbf14a4e0	-0.5806408
102	0xbc8536f7	-0.01626156
103	0xbdbfac9a	-0.09359093
104	0xbdc7149a	-0.09720726
105	0x3ea72bac	0.32650506
106	0x3eeac017	0.45849678
107	0x3ec3325a	0.38124353
108	0xbde16e9f	-0.110074274
109	0xbebf08c0	-0.37311363
110	0xbefbdf0e	-0.49193615
111	0x3e92acbf	0.2864742
112	0x3d0f494e	0.03498202
113	0xbeaafd98	-0.33396602
114	0x3f078888	0.52942705
115	0x3ec78a7b	0.3897284
116	0xbd967b20	-0.07347703
117	0x3d479c2a	0.048732914
118	0x3d2a3cb8	0.041561812
119	0x3e61b485	0.22041519
120	0x3d65ae4b	0.05607442
121	0x3ddf9c84	0.10918525
122	0x3e6bb053	0.23016481
123	0x3e3080a0	0.17236567
124	0x3e0a930d	0.13532658
125	0x3def594d	0.11686955
126	0xbc8131f2	-0.015770886
127	0xbe1d3422	-0.15351918
128	0xbde9ca64	-0.11415556
129	0xbdb8cde0	-0.090236425
130	0xbe2a6a81	-0.1664219
131	0xbe4aeb32	-0.19816282
132	0x3c7a9be5	0.015295957
133	0xbda82e92	-0.082120076
134	0xbd6d2ad0	-0.057902157
135	0x3e34e83e	0.17666718
136	0xbeb644a2	-0.35599238
137	0xbd7f7a0e	-0.06237226
138	0x3f061688	0.5237813
139	0xbebb23c3	-0.36550722
140	0x3ccfcc0e	0.025365856
141	0x3efa52c5	0.48891273
142	0xbebc5df8	-0.36790442
143	0xbdcd6bda	-0.10030337
144	0xbe148289	-0.1450292
145	0xbdbd0dc2	-0.0923114
146	0xbe22c59a	-0.15895692
147	0xbde3f408	-0.1113053
148	0x3e23f8c2	0.16012862
149	0xbcd21097	-0.025642676
150	0x3d00ea0e	0.031473212
151	0x3efc655f	0.4929609
152	0x3dfbe11c	0.122987956
153	0x3e673b83	0.22581296
154	0x3da8df56	0.08245723
155	0xbcca10fd	-0.024666304
156	0x3eac7431	0.33682397
157	0x3dfbbe7c	0.122921914
158	0xbc7de15d	-0.015495625
159	0x3e2c1398	0.1680435
160	0x3d180769	0.037116442
161	0xbd6f5df3	-0.058439206
162	0xbcf860ee	-0.030319657
163	0xbe6cfa0b	-0.23142259
164	0xbd644001	-0.0557251
165	0x3e8d9ce0	0.2765875
166	0x3ee429f9	0.44563273
167	0xbe9a723e	-0.30165285
168	0x3e649dc3	0.22325806
169	0x3dc276ac	0.09495291
170	0xbd843499	-0.06455345
171	0x3e7cd225	0.24689539
172	0x3ea24aca	0.31697685
173	0x3e91b364	0.28457177
174	0xbea7e233	-0.32789764
175	0xbea05156	-0.31312054
176	0xbe75a116	-0.2398723
177	0x3dca2373	0.09870043
178	0xbc6d7e29	-0.014495411
179	0xbdab54f1	-0.08365811
180	0xbe35d79a	-0.17758027
181	0xbe891f6f	-0.26781794
182	0x3f0312a2	0.51200306
183	0xbe96947e	-0.29410166
184	0xbe6f3f4b	-0.23363988
185	0x3efdf54e	0.49601215
186	0xbe8b5f28	-0.27221036
187	0xbe272771	-0.1632364
188	0x3e9590b4	0.29211962
189	0xbf33fe77	-0.7031016
190	0xbf0cb163	-0.5495817
191	0xbf0aca76	-0.5421518
192	0xbdda6dc9	-0.10665471
193	0x3e053ca4	0.13011414
194	0x3e1e7b66	0.1547676
195	0x3eba129c	0.36342323
196	0x3f4452bd	0.7668875
197	0x3f5b4314	0.8564923
198	0xbf3a42d4	-0.7275822
199	0xbf0f321a	-0.55935824
200	0xbebe0b30	-0.3711791
201	0xbe6bde28	-0.23033965
202	0x3e8c3f11	0.27391866
203	0x3ee76546	0.45194453
204	0x3de9cba7	0.11415797
205	0x3f2789ea	0.65444815
206	0x3f348209	0.7051092
207	0xbdf0854b	-0.117441736
208	0x3dae0427	0.08496886
209	0x3dc9fb05	0.09862331
210	0x3ed8afe2	0.42321688
211	0x3b4ed091	0.003155742
212	0xbea181d0	-0.31544352
213	0xbe5309c1	-0.2060919
214	0x3cfe34ff	0.03103113
215	0x3e9ca816	0.3059699
216	0x3cebe1cb	0.02879419
217	0x3ebde8f8	0.37091804
218	0xbed0c775	-0.40777174
219	0x3de0744c	0.10959682
220	0x3ea8b926	0.32953757
221	0xbef75d8c	-0.48313558
222	0x3e5d0bdd	0.21586557
223	0x3e798aec	0.243694
224	0xbee400d8	-0.44531894
225	0xbe11dd16	-0.14244494
226	0x3c93ab71	0.018026086
227	0x3e860a09	0.2617953
228	0xbe792dcd	-0.24333878
229	0x3e295180	0.16534996
230	0x3ed3e71b	0.41387257
231	0xbeb2a4e0	-0.34891415
232	0xbdc4c9c3	-0.096087955
233	0x3e12be88	0.14330494
234	0xbd759056	-0.059952103
235	0x3e29ccfd	0.16582103
236	0xbd2b358a	-0.041799106
237	0x3de5becf	0.112180345
238	0x3ec2b387	0.38027593
239	0x3c4cd1d5	0.0125012
240	0x3dd19023	0.1023257
241	0x3e94a39a	0.29031068
242	0x3c91319b	0.017723849
243	0x3d034d12	0.03205592
244	0xbcf91c68	-0.030409053
245	0xbd98bf2c	-0.07458338
246	0xbe335798	-0.17513883
247	0xbe478028	-0.19482481
248	0xbe2c780e	-0.16842672
249	0xbe43c827	-0.19119321
250	0xbe6e159b	-0.2325043
251	0xbddd44b0	-0.10804117
252	0x3e9348c1	0.28766444
253	0xbe7d22a1	-0.24720241
254	0xbde8a010	-0.113586545
255	0x3ed516a7	0.41618845
